PPO Algorithm/PPO_preTrained/Pendulum/PPO_Pendulum_0_0.pth (torch, 40959 bytes, 11 tensors)

actor.0.weight f4 [64, 4]
0	0xbe3354d4	-0.17512828
1	0x3eddc91d	0.433175
2	0xbe56c408	-0.20973217
3	0xbdc1c0c5	-0.09460596
4	0x3ec93278	0.39296317
5	0xbedc5681	-0.43034747
6	0xbe703d70	-0.23460937
7	0x3e95b7b3	0.29241714
8	0x3ebd8941	0.3701878
9	0x3e3b15e3	0.18270068
10	0xbe8d1b54	-0.27559912
11	0xbe8f7aa6	-0.2802326
12	0x3eabf598	0.3358581
13	0xbe09d930	-0.13461757
14	0xbe67da35	-0.22641833
15	0xbf0bde38	-0.54635954
16	0x3cdacd1b	0.02670913
17	0xbecb84a2	-0.39749628
18	0x3ecd046d	0.4004244
19	0xbe0381c1	-0.12842466
20	0xbea59f52	-0.32348114
21	0x3dff2aa8	0.12459308
22	0x3dcc8798	0.099868
23	0xbea11e16	-0.31468266
24	0x3e7f3323	0.24921851
25	0xbd7fb489	-0.06242803
26	0xbe12006f	-0.14257978
27	0xbc7aaa7f	-0.0152994385
28	0x3e8dc34c	0.27688062
29	0x3e91ae32	0.28453213
30	0xbea444e4	-0.3208381
31	0x3e5b2b6c	0.21403283
32	0xbe2d819c	-0.16943973
33	0xbe9ed06e	-0.31018394
34	0xbed96c10	-0.42465258
35	0x3e9e43e0	0.3091116
36	0x3ec0639a	0.3757599
37	0x3da32610	0.07966244
38	0x3d302a20	0.043008924
39	0x3e0f0544	0.13966852
40	0xbe8193c1	-0.2530804
41	0x3ea70a92	0.32625252
42	0x3ebbf7b0	0.36712408
43	0x3d84f2a8	0.064915955
44	0x3e253354	0.16132861
45	0xbe3a430f	-0.18189643
46	0xbe44943d	-0.19197173
47	0xbdcf8713	-0.10133185
48	0x3e745288	0.23859608
49	0xbe16408d	-0.14673062
50	0xbee46517	-0.44608375
51	0xbe1dcc07	-0.15409862
52	0xbe4762b3	-0.19471245
53	0x3f0e1635	0.55502635
54	0x3de91a88	0.113820136
55	0xbe0842af	-0.13306688
56	0xbdb67ea0	-0.089108706
57	0xbd1d9470	-0.03847164
58	0xbd54e870	-0.051979482
59	0xbd5d2780	-0.05399275
60	0x3de39298	0.11111945
61	0xbe251e7c	-0.1612491
62	0xbee96356	-0.455836
63	0xbd809788	-0.06278902
64	0xbeb293fa	-0.34878522
65	0xbd296220	-0.041353345
66	0xbe3bc968	-0.18338549
67	0xbefe7bd2	-0.49703842
68	0xbc856260	-0.01628226
69	0xbe42cf48	-0.19024384
70	0xbee6e7b4	-0.4509865
71	0xbe3292bc	-0.17438787
72	0xbe221929	-0.1582991
73	0xbf00adb6	-0.5026506
74	0x3eae7709	0.34075192
75	0xbe76cd68	-0.24101794
76	0xbefa6208	-0.48902917
77	0xbefe02c2	-0.4961148
78	0xbef3088e	-0.47467464
79	0x3edb309e	0.4281053
80	0x3f02daba	0.51115
81	0x3e47c631	0.19509198
82	0xbcec6bd7	-0.028860016
83	0xbe946f74	-0.28991282
84	0xbea7e110	-0.32788897
85	0xbe56e332	-0.20985106
86	0x3eca4c58	0.3951137
87	0xbe96b0a1	-0.29431632
88	0xbdf1ae36	-0.11800806
89	0x3ea6b4fd	0.32559958
90	0xbe15cc2f	-0.14628671
91	0xbe83861d	-0.25688258
92	0xbf0455f1	-0.51693636
93	0x3d483c87	0.04888585
94	0x3eb65e7a	0.35618955
95	0x3ec9a36e	0.393825
96	0xbd194150	-0.037415802
97	0x3ed5066c	0.41606462
98	0x3e5a4540	0.2131548
99	0xbe6b699c	-0.22989506
100	0xbe6c787d	-0.23092838
101	0xbdca1697	-0.0986759
102	0x3edc7092	0.43054634
103	0xbe3cdd43	-0.1844378
104	0xbe1da050	-0.15393186
105	0xbe5ea88c	-0.21743983
106	0xbe548e84	-0.2075749
107	0x3e19794c	0.14987677
108	0xbeca9d2a	-0.39573032
109	0x3de1222b	0.10992845
110	0x3eedaa74	0.46419108
111	0xbe6205cc	-0.22072524
112	0xbe7fc648	-0.24977982
113	0x3df2f4d1	0.11863101
114	0x3d8ab9da	0.067737296
115	0xbcf7101b	-0.030159047
116	0x3e992dea	0.29917842
117	0xbedc0e3e	-0.42979616
118	0xbef37b92	-0.47555214
119	0xbd944ec8	-0.07241589
120	0xbedc4e70	-0.43028593
121	0x3ee6ecd8	0.45102572
122	0xbebdda88	-0.3708079
123	0xbef1d436	-0.47232217
124	0xbe4572a9	-0.1928202
125	0xbee6d1c9	-0.45081928
126	0x3ec3de0d	0.3825535
127	0x3e8c353d	0.27384368
128	0xbe5f0557	-0.2177938
129	0xbd8c2e80	-0.06844807
130	0x3ee0f470	0.4393649
131	0xbee7a1bc	-0.4524058
132	0xbf044ea2	-0.51682484
133	0xbef2417c	-0.47315586
134	0x3e210459	0.15724315
135	0x3ea7666a	0.32695323
136	0xbe2cf22d	-0.16889258
137	0xbeb36ab2	-0.3504234
138	0x3ef42512	0.47684532
139	0x3e19854f	0.1499226
140	0x3ec857c4	0.3912946
141	0x3dcce0b8	0.10003799
142	0x3ecdf822	0.40228373
143	0xbeabd1d6	-0.3355853
144	0xbe58d9dc	-0.21176857
145	0xbe057af0	-0.13035178
146	0xbdecf6e0	-0.11570525
147	0xbe6bc344	-0.23023707
148	0xbb673100	-0.003527701
149	0x3eb19848	0.34686494
150	0xbdf09320	-0.11746812
151	0x3e451368	0.19245684
152	0xbeeafec0	-0.45897484
153	0x3cdc04a0	0.026857674
154	0xbdba4e98	-0.09097022
155	0x3deed790	0.11662209
156	0x3ed60c28	0.4180615
157	0x3efb936c	0.4913591
158	0xbe8505dc	-0.25981033
159	0x3ce85c60	0.02836436
160	0x3b447b2b	0.002998064
161	0x3ea1bc7a	0.3158911
162	0xbdf87468	-0.12131578
163	0x3ed527a7	0.41631815
164	0xbe55d4e0	-0.20881987
165	0xbefaff9c	-0.4902314
166	0xbe914746	-0.2837469
167	0xbd5c1160	-0.053727508
168	0xbeccaaee	-0.3997416
169	0x3e9c3584	0.3050958
170	0xbe369238	-0.17829216
171	0xbe20ec7c	-0.15715212
172	0x3ea27334	0.31728518
173	0xbead4e1c	-0.33848655
174	0x3e850242	0.25978285
175	0x3e7a1ea4	0.24425751
176	0xbef91926	-0.48652
177	0x3d1aa5f1	0.03775591
178	0x3e800d9e	0.2501039
179	0xbf071085	-0.5275958
180	0xbde24050	-0.11047423
181	0x3e8354c5	0.25650612
182	0xbe591265	-0.21198423
183	0x3c6572b0	0.014004394
184	0xbec47986	-0.38373965
185	0x3ed71d9d	0.4201478
186	0x3e9508f1	0.29108384
187	0x3e53bc0a	0.206772
188	0x3dc90f30	0.0981735
189	0xbedb8086	-0.42871493
190	0xbe8570a0	-0.2606249
191	0x3e580894	0.21097022
192	0x3edad9fa	0.42744428
193	0x3dbbfc46	0.09178977
194	0x3e45a68f	0.19301818
195	0xbe8af8eb	-0.27143034
196	0xbee11bea	-0.4396661
197	0xbe4112d0	-0.18854833
198	0xbefc5922	-0.49286753
199	0xbdb2c7e0	-0.087295294
200	0x3ee47a72	0.44624668
201	0xbdf025ec	-0.11725983
202	0x3e2b1061	0.16705467
203	0xbdf87a7f	-0.12132739
204	0x3ea65461	0.3248625
205	0xbee87b1d	-0.45406428
206	0xbe2fa050	-0.17150998
207	0xbe39d4cc	-0.18147582
208	0x3e4ded18	0.20109975
209	0x3e3283b8	0.17433059
210	0xbeac3e79	-0.33641413
211	0xbd6251c1	-0.055253748
212	0x3ef1eeba	0.47252446
213	0xbdf4b981	-0.119494446
214	0x3ec83311	0.3910146
215	0xbea179dc	-0.31538284
216	0x3e1b1434	0.15144426
217	0xbe03f2e4	-0.12885624
218	0x3ca70520	0.020388186
219	0xbeffbf40	-0.499506
220	0xbd54b800	-0.05193329
221	0xbe24eaf8	-0.16105258
222	0xbe82fce6	-0.2558357
223	0x3e356738	0.17715156
224	0xbdec1467	-0.11527329
225	0xbe8459d2	-0.25849777
226	0x3e51b9ef	0.20481084
227	0xbde0c945	-0.10975889
228	0x3e804512	0.25052696
229	0x3ec510f3	0.38489494
230	0xbed1db3c	-0.40987575
231	0x3e8da40f	0.2766423
232	0xbe10287c	-0.14077944
233	0xbdefb4d8	-0.11704415
234	0x3ee4ec04	0.44711316
235	0x3e834988	0.25642037
236	0x3e7f520f	0.24933647
237	0xbec8e8f3	-0.39240226
238	0xbe8bc1a1	-0.27296165
239	0x3ec79797	0.3898284
240	0x3dac32f0	0.08408153
241	0xbd232150	-0.03982669
242	0xbe85abb2	-0.26107556
243	0xbe52d420	-0.20588732
244	0x3ee51fa0	0.4475069
245	0xbe6a4c78	-0.22880733
246	0x3e7a8c7c	0.24467653
247	0x3e50682c	0.20352238
248	0xbe3cfb48	-0.18455231
249	0x3e3096ae	0.1724498
250	0x3ec3fcac	0.3827871
251	0xbec4b121	-0.3841639
252	0xbd244960	-0.04010904
253	0xbe221948	-0.15829957
254	0x3ee15daa	0.44016773
255	0x3ed0907e	0.4073524

actor.0.bias f4 [64]
0	0xbdafbcd8	-0.08580941
1	0xbefee7e0	-0.49786282
2	0xbecdecfc	-0.40219867
3	0xbe5e255e	-0.21693942
4	0xbebcbb9e	-0.3686189
5	0xbe2b6f5c	-0.16741699
6	0xbcbe60e7	-0.023239566
7	0x3cc02040	0.023452878
8	0xbded1540	-0.11576319
9	0xbca23460	-0.019800365
10	0x3df44e69	0.11929018
11	0x3e434f9c	0.19073337
12	0xbe843b4b	-0.25826487
13	0xbbb5baad	-0.005545935
14	0xbbd54780	-0.0065087676
15	0x3efa6d2c	0.48911417
16	0xbedae30c	-0.42751348
17	0x3ee1357a	0.43986112
18	0x3e680a66	0.22660217
19	0x3d433470	0.04765743
20	0xbe5d53f8	-0.21614063
21	0x3ea2dd4a	0.31809455
22	0xbe096159	-0.13416041
23	0xbeff0167	-0.49805757
24	0x3e1ff820	0.15621996
25	0xbdfe689f	-0.12422299
26	0x3dcfd8b8	0.10148758
27	0x3e869c36	0.26291054
28	0x3d03a284	0.03213741
29	0xbe222bd8	-0.15837038
30	0x3ea0d5a8	0.31413007
31	0xbdbf8a08	-0.09352499
32	0x3ee86061	0.4538603
33	0xbe5c4887	-0.21512042
34	0x3eb2b002	0.34899908
35	0xbe8edaae	-0.27901214
36	0x3c86be40	0.01644814
37	0xbd82fc90	-0.06395829
38	0xbecd21c8	-0.40064836
39	0x3eb01d56	0.34397382
40	0xbda6d6fe	-0.08146475
41	0x3e59ff9c	0.21288913
42	0xbec719d0	-0.3888688
43	0xbef5f402	-0.48037726
44	0xbeb6da59	-0.3571346
45	0xbd0d0d51	-0.034436528
46	0xbe6c1cf0	-0.23057914
47	0xbeadcb58	-0.339442
48	0x3b86e664	0.00411682
49	0xbe9d6a1c	-0.30745018
50	0xbebdb91c	-0.3705529
51	0xbea70a00	-0.32624817
52	0xbe741cb4	-0.23839074
53	0x3e59eb04	0.21281058
54	0x3e8d50c4	0.27600682
55	0xbed6f21c	-0.4198159
56	0xbe9831cb	-0.2972549
57	0xbf008772	-0.50206673
58	0x3d8628a0	0.06550717
59	0xbe104b90	-0.14091325
60	0x3d197520	0.037465215
61	0x3eda1e5a	0.4260128
62	0xbef48632	-0.47758633
63	0x3e24ff2c	0.16112965

actor.2.weight f4 [64, 64]
0	0x3e5e50cf	0.21710514
1	0x3d71e529	0.059056435
2	0xbdb963d1	-0.090522416
3	0x3d5a413f	0.05328488
4	0xbe0cbb19	-0.13743247
5	0x3d7ee1ff	0.062227245
6	0xbe218e13	-0.15776853
7	0x3c1dad08	0.009623773
8	0x3ccbb2ce	0.024865534
9	0x3db2ed7f	0.08736705
10	0x3d92da1b	0.071705066
11	0x3de7b609	0.11314017
12	0x3d95f689	0.073224135
13	0x3d87ff21	0.06640459
14	0xbddeb187	-0.108737044
15	0x3c97e41f	0.018541394
16	0xbd7316d0	-0.059347928
17	0x3d3c2c83	0.045940887
18	0x3d8c9389	0.068640776
19	0x3d0136a3	0.031546246
20	0xbd69105e	-0.056900375
21	0xbdb640d8	-0.08899087
22	0x3d18d3f4	0.03731151
23	0x3daa4c53	0.08315339
24	0x3d2504f9	0.040287945
25	0xbc98ce25	-0.018652985
26	0xbdee70b3	-0.116425894
27	0x3e2f155c	0.17097992
28	0xbe02525f	-0.12726735
29	0x3dce3b31	0.100698836
30	0xbc685333	-0.0141799925
31	0x3e1ff775	0.15621741
32	0xbdebec9a	-0.115197375
33	0xbd35eb3a	-0.044413783
34	0xbe0c6772	-0.13711336
35	0xbdf0584d	-0.11735592
36	0x3d09c770	0.033637464
37	0x3d120161	0.035645846
38	0x3d91e4cb	0.07123717
39	0x3d66fd91	0.056394164
40	0x3e002414	0.12513763
41	0xbd961e57	-0.073300056
42	0xbdfcb768	-0.123396695
43	0xbda23451	-0.07920135
44	0xba90d09d	-0.00110485
45	0x3da2756b	0.07932552
46	0xbc28c3be	-0.010300575
47	0xbd09fd55	-0.033688862
48	0xbce89abe	-0.0283941
49	0x3d7baed7	0.061446037
50	0xbd88b6d0	-0.06675494
51	0xbdeaf2b3	-0.114720725
52	0xbd38adb6	-0.04508754
53	0xbd890c8a	-0.06691845
54	0x3da3945f	0.07987284
55	0xbda81939	-0.08207936
56	0xbdc2caab	-0.09511312
57	0xbdcd331f	-0.10019516
58	0x3d9403b7	0.07227271
59	0xbd3be7c6	-0.045875333
60	0xbd721622	-0.05910314
61	0xbda286ef	-0.07935893
62	0xbddf7308	-0.10910612
63	0xbcb207e0	-0.02173227
64	0x3d3fe3d7	0.046848144
65	0x3ddee76d	0.10883985
66	0x3ce9cc6c	0.028539859
67	0x3d8dce62	0.0692413
68	0x3cc6cc14	0.024267234
69	0xbddc21a5	-0.10748605
70	0xbdc7ca04	-0.09755328
71	0x3d9bfb34	0.076162726
72	0xbcd2d1d7	-0.025734825
73	0xbd22244e	-0.039585404
74	0xbd16a566	-0.03677883
75	0x3dc11498	0.09427756
76	0x3d5308cf	0.051522072
77	0xbd31625f	-0.043306705
78	0x3d17bd9a	0.037046053
79	0xbd59861e	-0.05310642
80	0xbdff79a8	-0.12474376
81	0x3d70eacc	0.05881767
82	0xbe0aba79	-0.13547696
83	0xbcab25a2	-0.020891968
84	0xbda92e3c	-0.08260772
85	0xbc33dba4	-0.010977659
86	0x3d8f9219	0.07010288
87	0x3dc884e6	0.09790973
88	0x3d3e1496	0.04640635
89	0xbde4f3bb	-0.111793004
90	0x3dc5f18f	0.09665214
91	0xbd328710	-0.043585837
92	0xbdd21e28	-0.10259658
93	0xbdf8ac27	-0.121422105
94	0xbe041a7b	-0.12900726
95	0xbd40237c	-0.04690884
96	0x3cdb0432	0.026735399
97	0xbc59edf6	-0.013301363
98	0xbdb952c5	-0.0904899
99	0x3c12c9d8	0.008959256
100	0x3c74bd93	0.014937776
101	0xbd8d0d6d	-0.068873264
102	0xbd72ea0e	-0.059305243
103	0xbd09f92a	-0.033684887
104	0x3d44052a	0.047856487
105	0x3d71a4e0	0.058995128
106	0x3cc6a2ed	0.024247611
107	0x3d805427	0.06266051
108	0x3dd99f96	0.10626142
109	0xbd0e90f9	-0.034806225
110	0x3bc1c627	0.005913514
111	0xbdfa6cd3	-0.12227788
112	0x3ddca806	0.107742354
113	0xbbbce1a7	-0.0057642045
114	0xbc5594e4	-0.013035987
115	0xbda45b5b	-0.08025237
116	0x3d01b9a2	0.031671174
117	0x3d04c7a7	0.032416966
118	0x3dc25203	0.09488299
119	0xbcdeaaa7	-0.027180983
120	0x3d70e926	0.058816098
121	0x3bd5bdd5	0.006522874
122	0x3dd7bcbb	0.10534044
123	0xbdbed53a	-0.093180135
124	0x3d2c7f0a	0.04211334
125	0x3d5e232a	0.054232754
126	0xbdb87e29	-0.09008438
127	0x3b515032	0.003193867
128	0xbd38d2a7	-0.04512277
129	0xbe0726ad	-0.13198347
130	0xbd700be1	-0.05860508
131	0x3ce4d364	0.02793283
132	0xbd64b429	-0.055835877
133	0x3dd27e61	0.10278011
134	0xbdd6bc1f	-0.104851
135	0x3d962ebf	0.07333135
136	0xbdb4a6a1	-0.088208444
137	0xbd00fc08	-0.031490356
138	0x3de103eb	0.109870754
139	0x3d93fdaf	0.07226121
140	0x3dbb721d	0.09152625
141	0xbd4360e5	-0.047699828
142	0xbdd62c3f	-0.10457658
143	0xbd90e035	-0.07074014
144	0xbd94ed5d	-0.07271836
145	0xbd9c347b	-0.07627197
146	0x3dc06739	0.09394688
147	0xbdedbecf	-0.116086595
148	0xbdce06ca	-0.10059889
149	0xbd0c7f06	-0.034300826
150	0xbd950fb2	-0.07278384
151	0xbdc985d6	-0.0983998
152	0x3df56be9	0.11983473
153	0x3cefa201	0.029252054
154	0xbdf32bd3	-0.11873593
155	0x3e0fe55c	0.14052337
156	0xbdd5a4a0	-0.1043179
157	0x3d05d279	0.032671425
158	0x3c0ffbe3	0.008788082
159	0xbd3eac19	-0.046550844
160	0xbdca0709	-0.09864623
161	0xbc4ef3c6	-0.012631362
162	0xbc263ea6	-0.0101467725
163	0x3e0429d1	0.12906577
164	0xbc5b2626	-0.0133757945
165	0x3d3e36c6	0.046438955
166	0x3d80d690	0.062909245
167	0xbdb641f5	-0.08899299
168	0xbbbf2c5e	-0.0058341464
169	0xbd9eb54d	-0.07749424
170	0xbdd6b72b	-0.10484155
171	0x3c1cba08	0.009565838
172	0xbd7c5597	-0.061605062
173	0x3d9941f0	0.0748328
174	0xbdc6032a	-0.09668572
175	0x3dc763b3	0.09735813
176	0xbd247a5b	-0.04015575
177	0x3d8fd081	0.07022191
178	0xbd44ef06	-0.048079513
179	0xbdcb67be	-0.099318966
180	0x3cb57c3b	0.022153964
181	0x3d9fe23b	0.07806822
182	0x3d6df928	0.058098942
183	0xbdfd05f7	-0.12354653
184	0x3b00f12f	0.0019675007
185	0x3cc3e634	0.02391348
186	0xbdb2afbb	-0.08724924
187	0xbe0d3fb5	-0.13793834
188	0x3d38eeb2	0.045149513
189	0xbb24ccbc	-0.0025146445
190	0xbdc15eb0	-0.09441888
191	0x3dbe2d2d	0.0928596
192	0x3e1896d8	0.14901292
193	0x3d9db04f	0.07699644
194	0x3dc40319	0.09570903
195	0x3d18fcee	0.037350588
196	0x3d272f62	0.040816672
197	0xbd82cb54	-0.06386438
198	0xbd41b48f	-0.047291335
199	0x3da0a526	0.078439996
200	0x3d9429a4	0.07234505
201	0x3c049d85	0.008094196
202	0xbd89d204	-0.067295104
203	0xbddcf8bf	-0.10789632
204	0xbd4e48ad	-0.050362278
205	0x3d17fe36	0.03710767
206	0x3d8c8de6	0.068630025
207	0x3dd667e0	0.10469031
208	0xbddd3b8a	-0.10802372
209	0x3d3e0767	0.04639378
210	0xbb9fe6aa	-0.004879792
211	0x3ddb8384	0.10718444
212	0xbd9fbf3a	-0.078001454
213	0xbdb4f2af	-0.08835351
214	0xbd97c87c	-0.07411286
215	0xbd5da391	-0.054111067
216	0xbdae5dc8	-0.08513981
217	0x3e5aab1c	0.21354336
218	0xbcdd8a55	-0.0270435
219	0x3d8b755c	0.06809494
220	0x3dbe71b0	0.09299028
221	0x3d41fa23	0.04735769
222	0x3dcc0962	0.09962727
223	0xbdb5f445	-0.08884481
224	0x3d4733b1	0.04863328
225	0xbe0ed1c4	-0.13947207
226	0xbe2fcae4	-0.1716724
227	0x3dce9f18	0.100889385
228	0xbd8302bd	-0.06397007
229	0x3d0a0726	0.033698224
230	0xbca37b5e	-0.019956287
231	0xbc85f16d	-0.016350472
232	0xbd4d1e0b	-0.05007748
233	0x3dd839f2	0.10557927
234	0x3dcc7e4e	0.09985028
235	0x3d8f6748	0.07002121
236	0x3ddde3e3	0.108344816
237	0x3d8f2a48	0.069904864
238	0x3d8dfec0	0.06933355
239	0x3cb32e59	0.021872686
240	0x3db5dbcc	0.088798136
241	0xbe008c13	-0.12553434
242	0x3dc1973c	0.09452674
243	0x3bf87e0d	0.007583386
244	0xbd8ea7e7	-0.069656186
245	0x3d183344	0.037158266
246	0x3db51928	0.08842689
247	0xbcf65253	-0.030068552
248	0xbd163638	-0.0366728
249	0x3c822c34	0.015890218
250	0x3ddfc466	0.10926132
251	0xbda1860b	-0.07886895
252	0x3c9dfe83	0.0192864
253	0x3dadbde2	0.08483483
254	0x3c3b9c73	0.011450875
255	0xbd8de736	-0.069288656

actor.2.bias f4 [64]
0	0xbd72f523	-0.05931581
1	0x3da71f6f	0.08160292
2	0xbda77806	-0.081771895
3	0x3df7b693	0.1209537
4	0xbdc6c1cf	-0.09704935
5	0xbd8d5ad5	-0.069020905
6	0x3dac3976	0.08409397
7	0xbd0d43cb	-0.03448848
8	0x3dc4d977	0.096117906
9	0xbdc45433	-0.09586372
10	0x3db2d3cf	0.087318055
11	0xbdd5495d	-0.104143836
12	0xbbbe0abd	-0.00579962
13	0x3da3ccfe	0.079980835
14	0xbe034ee6	-0.12823066
15	0xbd1d1de5	-0.038358588
16	0xbd2f4002	-0.042785652
17	0x3d9b21b4	0.07574788
18	0x3cee31f7	0.02907656
19	0x3c91876b	0.017764768
20	0x3c5c674d	0.013452363
21	0x3dc1f52a	0.094705895
22	0xbd83c751	-0.06434501
23	0xbe041ff9	-0.12902822
24	0xbdb383ca	-0.08765371
25	0x3da6ad2f	0.08138501
26	0xbdb3fe67	-0.08788758
27	0xbc91f5e2	-0.017817441
28	0xbd63bee0	-0.055601954
29	0xbdad2a95	-0.084553875
30	0x3cf6561b	0.030070355
31	0xbccf2e12	-0.025290523
32	0xbdb39b61	-0.087698705
33	0xbd626f4e	-0.05528193
34	0xbda5df8f	-0.08099281
35	0x3df7ec92	0.12105669
36	0x3dccc4ca	0.09998472
37	0x3d2e54ad	0.042561222
38	0x3d320c44	0.04346873
39	0xbdc7ffbb	-0.097655736
40	0x3ce756ce	0.028239634
41	0x3d3a50a4	0.04548706
42	0xbdc4c5b6	-0.09608023
43	0xbcdfd208	-0.02732183
44	0x3c96b8b6	0.018398624
45	0xbbc625e2	-0.0060469965
46	0xbcc71206	-0.024300586
47	0x3ce7db42	0.028302792
48	0xbdb46618	-0.08808535
49	0xbcf3cb53	-0.029760038
50	0x3dabd732	0.083906546
51	0x3dbf550b	0.093423925
52	0x3dd1227f	0.10211658
53	0xbd8219bd	-0.063525654
54	0xbd0c5ceb	-0.0342683
55	0x3de9b0f2	0.11410703
56	0x3d89b3d8	0.067237556
57	0x3ca005f9	0.019534098
58	0x3b5c9ace	0.0033661607
59	0xbda19fab	-0.078917824
60	0x3cf2e1cb	0.029648682
61	0x3db1186f	0.086472385
62	0xbd1a1d4c	-0.037625596
63	0xbbd67986	-0.0065452484

actor.4.weight f4 [3, 64]
0	0xbdbb27f7	-0.09138482
1	0x3c37e46f	0.011223896
2	0x3c69ea78	0.014277093
3	0x3d909130	0.07058942
4	0xbd204372	-0.03912682
5	0xbd5f2fa1	-0.05448878
6	0xbc4db7fb	-0.012556071
7	0x3e29e0e9	0.16589703
8	0x3bcd0abe	0.006257384
9	0x3db3d389	0.087805815
10	0xbd520802	-0.051277168
11	0xbe437802	-0.19088748
12	0x3d399066	0.045303725
13	0x3cacaa5c	0.021077327
14	0x3d8ae252	0.067814484
15	0x3d1fce68	0.039015204
16	0xbda1fc0e	-0.07909404
17	0x3c2ce611	0.010552899
18	0x3d8a3467	0.06748276
19	0xbd51e2cf	-0.051241692
20	0xbd36d7cf	-0.044639405
21	0xbbc4b8ae	-0.006003461
22	0x3d1df686	0.03856518
23	0xbcc14dfb	-0.023596754
24	0xbdae45f1	-0.08509434
25	0xbe8a975b	-0.270686
26	0x3e05bea2	0.13061002
27	0xbe2dfbcd	-0.16990586
28	0xbe3e791b	-0.18600886
29	0x3bdfd042	0.006830246
30	0xbdb00a7c	-0.0859575
31	0x3d80bc32	0.062858954
32	0xbd30840f	-0.04309469
33	0xbdec3b89	-0.11534793
34	0x3e1e5cab	0.15465038
35	0xbe672982	-0.22574428
36	0x3d2e7aeb	0.042597692
37	0xbce29e5f	-0.027663408
38	0x3d55220d	0.052034426
39	0xbe0f0827	-0.13967954
40	0xbd4e5aa4	-0.05037941
41	0x3e51caee	0.20487568
42	0xbdb72d50	-0.089441895
43	0x3e087314	0.13325149
44	0x3d3ad7e7	0.045616057
45	0xbdba6b7e	-0.09102534
46	0x3bf16129	0.0073663187
47	0x3dcbdc0f	0.09954082
48	0xbd29e284	-0.041475788
49	0xbcf1c9bd	-0.029515142
50	0xbe4a2644	-0.1974116
51	0x3e006eb4	0.1254223
52	0x3de3744c	0.11106166
53	0x3ccdc31f	0.025117455
54	0xbe56772e	-0.20943901
55	0x3d6d2f92	0.057906695
56	0x3d118297	0.03552493
57	0xbc0a1ee1	-0.008430214
58	0x3dd7043c	0.104988545
59	0x3e4476e7	0.19185983
60	0x3cdc6d91	0.026907714
61	0x3d4bf774	0.049796537
62	0x3dc73a94	0.0972797
63	0xbc6ed9b9	-0.014578276
64	0xbce98796	-0.028507035
65	0xbd43432e	-0.04767149
66	0x3d362f0e	0.04447847
67	0x3dfb90a2	0.12283446
68	0xbd326775	-0.043555696
69	0x3c8f0630	0.017459005
70	0xbde49605	-0.111614265
71	0x3cc06eb9	0.023490297
72	0xbd08ba75	-0.033380944
73	0x3d4b2165	0.049592394
74	0x3c343658	0.010999285
75	0x3dd2726a	0.10275729
76	0xbc7196f7	-0.0147454655
77	0xbe1b2481	-0.15150644
78	0x3d7e839a	0.062137224
79	0x3b9ecc5b	0.0048461384
80	0x3c512576	0.012765279
81	0x3d917ab8	0.07103485
82	0xbc9a486f	-0.018833367
83	0xbdffe7aa	-0.12495358
84	0x3d61b9f9	0.055108998
85	0x3c0e1bf3	0.008673656
86	0x3d4f9ca9	0.050686512
87	0x3db79b62	0.08965184
88	0x3d1aa676	0.037756406
89	0xbca35b5b	-0.019941023
90	0x3d937ad2	0.072011605
91	0xbbff9af3	-0.007800454
92	0xbdcadcdf	-0.09905409
93	0x3da3b828	0.079941094
94	0xbd924f74	-0.07144061
95	0x3d8c38f2	0.06846799
96	0xbcbfea05	-0.023427019
97	0xbde11567	-0.1099041
98	0x3dcc733b	0.09982916
99	0x3dbcf82e	0.09227024
100	0x3db4eff7	0.08834832
101	0x3a69b7be	0.00089156243
102	0xbce1724f	-0.027520327
103	0xbd75572b	-0.059897583
104	0xbb8f3151	-0.0043698926
105	0x3d8e8990	0.06959832
106	0x3c324f72	0.010883199
107	0x3da91d5b	0.08257552
108	0x3d2c4b37	0.042063918
109	0x3cb3d97e	0.021954294
110	0xbd00f248	-0.031481057
111	0x3c59f12e	0.013302131
112	0x3de491ee	0.111606464
113	0xbd666b63	-0.056254756
114	0x3d4b5ac8	0.049647123
115	0xbd040ef8	-0.032240838
116	0x3df2d9a8	0.11857921
117	0xbd801851	-0.06254638
118	0x3d6e44b4	0.05817099
119	0x3dc5c362	0.09656407
120	0x3d946f4f	0.07247793
121	0x3c9be766	0.019031238
122	0xbd228535	-0.039677817
123	0x3d5e86f4	0.05432792
124	0xbe091d9c	-0.13390201
125	0x3b896bbd	0.0041937516
126	0xbdc0cf4d	-0.094145395
127	0x3cf4a3dd	0.029863292
128	0x3e41d622	0.18929341
129	0x3d8fe2d9	0.0702569
130	0x3e07946e	0.13240215
131	0x3dd80ce3	0.10549333
132	0x3b788462	0.0037920703
133	0x3e0acec2	0.13555434
134	0x3d064b8e	0.0327869
135	0x3db14401	0.08655549
136	0xbd4831a9	-0.048875485
137	0xbdb5165e	-0.08842157
138	0xbd4332b1	-0.047655765
139	0x3e10ce32	0.14141157
140	0xbcdb4b8c	-0.026769422
141	0xbe4063a2	-0.18788007
142	0x3da6233a	0.08112188
143	0xbd1d2b70	-0.038371503
144	0x3d84aa31	0.06477774
145	0xbe0a7bdf	-0.13523816
146	0xbd77accf	-0.060467537
147	0xbe0bf093	-0.1366599
148	0x3e6e2cd0	0.23259282
149	0xbd55f4ba	-0.052235343
150	0x3bbf9d7b	0.0058476306
151	0x3e4bb239	0.19892205
152	0x3db56afe	0.08858298
153	0x3e2e7a95	0.17038949
154	0xbe0bfa35	-0.13669665
155	0x3e11ffb1	0.14257695
156	0xbc6b3c43	-0.014357629
157	0xbc10365c	-0.008802023
158	0x3bd4bbae	0.0064920997
159	0xbe03f7d4	-0.12887508
160	0x3d569878	0.0523915
161	0x3cdb95e6	0.026804876
162	0xbdb73118	-0.08944911
163	0x3e19b6e1	0.15011169
164	0x3d2e550d	0.04256158
165	0xbe0e75e4	-0.13912159
166	0x3c5e13df	0.013554542
167	0x3da9fe5f	0.083004706
168	0xbdaa19f4	-0.083057314
169	0xbd4b2c1d	-0.049602617
170	0x3e00f48d	0.12593289
171	0xbca18686	-0.019717466
172	0xbdd5cf48	-0.104399264
173	0x3d387291	0.045031134
174	0x3d9a1ee8	0.07525426
175	0xbd600791	-0.054694716
176	0x3d7156cb	0.058920663
177	0xbdbf5505	-0.09342388
178	0x3dc541b5	0.09631673
179	0x3c2f961c	0.010716941
180	0x3b6104e9	0.0034335202
181	0xbbb6b31b	-0.0055755503
182	0x3e0f3966	0.1398674
183	0x3d7d67ea	0.06186668
184	0xbd6c89b2	-0.057748504
185	0xbdea70fc	-0.11447331
186	0xbe4f1190	-0.20221543
187	0xbe50e49b	-0.20399706
188	0xbe278870	-0.1636064
189	0xbd2b5d58	-0.041837066
190	0x3d2eec4a	0.04270581
191	0xbc5e1766	-0.013555383

actor.4.bias f4 [3]
0	0x3da2b10d	0.07943926
1	0xbdfa2bde	-0.12215398
2	0x3dd0137a	0.10159965

critic.0.weight f4 [64, 4]
0	0xbecd927c	-0.4015082
1	0x3d57dd0b	0.052701037
2	0x3e7c2ecf	0.24627231
3	0xbdf1f89d	-0.11814997
4	0x3eed2406	0.46316546
5	0x3e8f95a6	0.2804386
6	0x3ed9bc9c	0.4252671
7	0x3ee94742	0.45562178
8	0xbda33d41	-0.07970668
9	0x3e73d8a0	0.23813105
10	0xbe9903b6	-0.29885644
11	0xbe2cf671	-0.16890885
12	0x3eb9a5f2	0.3625942
13	0xbed6de21	-0.41966346
14	0xbecc56a4	-0.39909852
15	0xbe9723ed	-0.29519597
16	0x3ea21ba0	0.316617
17	0x3eb23cea	0.348121
18	0x3ee5edca	0.4490798
19	0x3dfcd828	0.12345916
20	0x3e03371e	0.12813994
21	0xbe43efd9	-0.19134463
22	0xbeb33c87	-0.35007116
23	0xbf111f81	-0.56688696
24	0x3e98fe54	0.29881537
25	0xbcc4f1bd	-0.024041051
26	0xbe0bb622	-0.13643697
27	0x3e7f75aa	0.24947229
28	0x3e1cb9ee	0.15305302
29	0xbdc6a480	-0.09699345
30	0xbf07c5d1	-0.5303622
31	0xbf27cbc4	-0.65545297
32	0xbeb13e82	-0.34618002
33	0x3e9e931c	0.3097161
34	0x3ed9bd22	0.4252711
35	0x3ec500e8	0.38477254
36	0xbebb2690	-0.36552858
37	0xbe567990	-0.2094481
38	0xbdf119a0	-0.11772466
39	0x3e8d0d54	0.2754923
40	0x3e710823	0.2353826
41	0xbec9c5dc	-0.39408767
42	0xbeb34e77	-0.350208
43	0xbe02854d	-0.12746163
44	0x3dc148e3	0.0943773
45	0x3e30f42c	0.17280644
46	0x3f081d77	0.5316996
47	0x3dcbaea3	0.09945419
48	0x3ec94708	0.39312005
49	0x3e8a895c	0.27057922
50	0x3e275530	0.1634109
51	0x3e8c7bc4	0.27438176
52	0x3cb40ec0	0.02197969
53	0xbe418d1c	-0.18901485
54	0xbef6c718	-0.4819877
55	0x3e8889e2	0.26667696
56	0xbca43980	-0.02004695
57	0x3eea9452	0.45816284
58	0x3d919820	0.07109094
59	0x3efcf91c	0.49408805
60	0xbdc17668	-0.09446412
61	0x3e476448	0.19471848
62	0x3ea612e6	0.32436293
63	0x3ecf985e	0.40545934
64	0x3eb5e1ee	0.35523933
65	0xbd6b73e6	-0.057483576
66	0xbe8460b7	-0.25855038
67	0xbeec53e5	-0.46157756
68	0xbc1c6a40	-0.009546816
69	0x3ec3c1d2	0.3823381
70	0xbecaa440	-0.39578438
71	0xbeeaf64c	-0.45891035
72	0xbef92296	-0.486592
73	0xbeb234b6	-0.3480584
74	0xbec30ae0	-0.38094234
75	0xb8c38000	-9.3221664e-05
76	0x3ecc0d81	0.39854053
77	0xbe8ea14a	-0.2785743
78	0xbef886d2	-0.4854036
79	0xbe3f387e	-0.18673894
80	0xbeabaea6	-0.33531684
81	0xbdc95b12	-0.098318234
82	0x3f00d270	0.503211
83	0x3ee80bd5	0.45321527
84	0x3e1b1b66	0.1514717
85	0xbee80578	-0.45316672
86	0xbedebf18	-0.43505168
87	0x3e869743	0.2628728
88	0x3ec6a042	0.38794142
89	0x3e855832	0.2604385
90	0xbef86d28	-0.4852078
91	0x3ef5db0a	0.48018676
92	0xbdc86f89	-0.09786899
93	0xbdb37c43	-0.087639354
94	0xbf174eee	-0.5910481
95	0x3e82d7c5	0.25555244
96	0x3e212318	0.15736043
97	0xbdf11f5d	-0.1177356
98	0xbe46b19c	-0.1940369
99	0xbf015977	-0.5052714
100	0xbcbc4a87	-0.022984756
101	0x3ed257dc	0.41082656
102	0xbe2d6602	-0.16933444
103	0xbef4c645	-0.47807518
104	0x3e9177cd	0.28411713
105	0x3e996ef8	0.29967475
106	0x3dbf87a7	0.093520455
107	0xbecf2e4d	-0.40465012
108	0x3e974352	0.2954355
109	0xbc34ba62	-0.011030765
110	0x3f00a6b4	0.5025437
111	0xbe880b48	-0.26571107
112	0x3e687a15	0.2270282
113	0x3ebe35f5	0.3715054
114	0x3e69418f	0.22778915
115	0xbec2cf31	-0.380487
116	0x3f07086a	0.52747214
117	0xbeb2166b	-0.3478273
118	0xbe789961	-0.2427726
119	0x3ee15ab0	0.44014502
120	0x3d821810	0.06352246
121	0xbe676e50	-0.22600675
122	0x3eaa9420	0.33316135
123	0x3eea6820	0.45782566
124	0xbec0c168	-0.37647557
125	0xbe55a4b8	-0.20863616
126	0xbecb47fa	-0.3970335
127	0xbeb44af6	-0.3521344
128	0x3eab383a	0.33441335
129	0x3d1e5780	0.038657665
130	0x3e11ca58	0.14237344
131	0x3ed6f3b2	0.419828
132	0xbddf7718	-0.10911387
133	0xbe350a4c	-0.17679709
134	0xbec7b9ac	-0.39008844
135	0xbe81c4d2	-0.25345474
136	0xbee98698	-0.456105
137	0xbd8a43f8	-0.06751245
138	0xbe43e178	-0.19128978
139	0xbd24b260	-0.040209174
140	0xbc6aee86	-0.014339095
141	0xbe3fe51d	-0.18739744
142	0x3edaa8a5	0.4270679
143	0x3f18c498	0.5967498
144	0xbf0b6123	-0.54445094
145	0x3d091467	0.033466723
146	0x3df769cc	0.12080726
147	0xbecb9f6e	-0.39770073
148	0x3c86043a	0.016359437
149	0x3e7002de	0.23438594
150	0x3f06ee55	0.52707416
151	0xbe324053	-0.1740735
152	0xbf1c2015	-0.60986453
153	0x3eb7a962	0.35871416
154	0xbedc3a76	-0.43013352
155	0x3d17e807	0.037086513
156	0xbf19c982	-0.600731
157	0x3cfc2b7e	0.030782457
158	0xbf19b259	-0.6003776
159	0x3e9935d4	0.2992388
160	0xbde7c7b0	-0.11317384
161	0x3df11bb8	0.11772865
162	0x3ec78658	0.38969684
163	0x3ec7e9bc	0.39045513
164	0xbe60b2f5	-0.21943267
165	0x3ed9d065	0.42541805
166	0x3e486f27	0.19573651
167	0x3efded3c	0.49595058
168	0x3ecdc6bc	0.40190685
169	0x3ebf9c4d	0.37423936
170	0xbf0c0175	-0.54689723
171	0xbdd10473	-0.10205927
172	0x3d8bd21a	0.06827183
173	0x3e9ceb77	0.30648395
174	0x3e4ce824	0.2001043
175	0x3e21adeb	0.15789
176	0x3dde8368	0.108649075
177	0x3eb5aa54	0.35481513
178	0x3eb8a6e0	0.36064816
179	0xbc8761c0	-0.016526103
180	0x3e8b8c0f	0.27255294
181	0x3e2f28b5	0.17105372
182	0xbf05e6ef	-0.523055
183	0x3e5f545d	0.21809526
184	0x3e3934e0	0.18086576
185	0xbdc7bb48	-0.09752518
186	0xbedca20c	-0.43092382
187	0xbe540230	-0.2070396
188	0xbefc7f72	-0.49315983
189	0x3e948f69	0.29015663
190	0x3e9cea67	0.30647585
191	0x3cf38018	0.029724166
192	0x3dc08ef0	0.09402263
193	0xbde46150	-0.111513734
194	0x3e0d47e0	0.1379695
195	0x3e0142bc	0.12623113
196	0xbea5b498	-0.32364345
197	0xbeb80042	-0.35937697
198	0xbe2c6c74	-0.16838247
199	0xbd5deea0	-0.05418265
200	0xbec76c14	-0.38949645
201	0x3da219a8	0.0791505
202	0xbe27d4d0	-0.16389775
203	0x3d299e60	0.041410804
204	0x3e26c6f2	0.16286829
205	0x3ec5742b	0.38565192
206	0xbdb575b5	-0.088603415
207	0x3e63a501	0.22230913
208	0x3e2844ec	0.16432542
209	0xbeb4d7fb	-0.3532103
210	0xbe3c73a4	-0.18403488
211	0x3dea82fb	0.11450764
212	0xbd86addb	-0.06576129
213	0x3e847af1	0.25875047
214	0xbed984d9	-0.42484167
215	0xbee3cd77	-0.44492695
216	0x3e9ce133	0.30640563
217	0x3ef23020	0.4730234
218	0xbe95934a	-0.29213935
219	0xbc67d455	-0.014149745
220	0xbed61c06	-0.41818255
221	0x3eb040fc	0.3442458
222	0xbccbe4c0	-0.02488935
223	0xbefc1b20	-0.49239445
224	0xbf02714e	-0.5095414
225	0x3e9f2bcb	0.310881
226	0x3e27d7f9	0.16390981
227	0xbe9fd10a	-0.31214172
228	0x3e135574	0.14388067
229	0xbe31f3bc	-0.17378134
230	0x3c1cf980	0.00958097
231	0x3e4fdd18	0.20299184
232	0xbe93f3dc	-0.28896987
233	0xbea75f4c	-0.32689893
234	0xbed798a6	-0.4210865
235	0xbeea4028	-0.45752072
236	0xbecf0063	-0.40429983
237	0x3e11d892	0.14242771
238	0x3ec42e65	0.38316646
239	0x3ea90a6a	0.33015758
240	0xbeffc606	-0.49955767
241	0xbece635c	-0.4031018
242	0xbe589870	-0.211519
243	0x3e84c978	0.25934958
244	0xbecac840	-0.39605904
245	0x3eb9efe0	0.36315823
246	0xbea624ea	-0.32450038
247	0xbe207320	-0.15668917
248	0x3eec6665	0.4617187
249	0xbebca8d1	-0.36847547
250	0x3efdb20b	0.49549899
251	0xbefa3e54	-0.48875678
252	0xbe06eab4	-0.1317547
253	0x3e7fed74	0.24992925
254	0x3e983864	0.29730523
255	0x3daf4990	0.08558953

critic.0.bias f4 [64]
0	0x3db83681	0.08994771
1	0x3eae7fe2	0.34081942
2	0xbec65cf4	-0.38742793
3	0x3ef2a1c2	0.47389036
4	0x3dce2390	0.10065377
5	0x3e523137	0.20526586
6	0xbd8f63dc	-0.070014685
7	0xbd43f2e5	-0.047839064
8	0xbd7ee780	-0.062232494
9	0xbeea0e76	-0.45714158
10	0xbdcacc7c	-0.099022835
11	0x3f0979a7	0.5370125
12	0xbef1f718	-0.4725883
13	0x3eac2a98	0.33626246
14	0x3e29d084	0.16583449
15	0xbec76220	-0.3894205
16	0x3e42c306	0.19019708
17	0x3cfbc220	0.030732214
18	0x3e9dfafe	0.30855554
19	0x3c39e76d	0.01134668
20	0x3ebf80b0	0.37402868
21	0xbe53c069	-0.20678867
22	0x3eb0970e	0.34490246
23	0xbe621559	-0.22078456
24	0xbe92cc02	-0.2867127
25	0x3e22104a	0.15826526
26	0xbd8f9e27	-0.07012587
27	0x3d7bb476	0.061451398
28	0xbea63e3e	-0.32469362
29	0xbe4de537	-0.2010697
30	0xbe713a28	-0.23557341
31	0xbebb1d4a	-0.36545783
32	0xbe94753c	-0.28995693
33	0xbe5f536c	-0.21809167
34	0xbea1cd1a	-0.31601793
35	0x3e92afcf	0.28649756
36	0xbe9bb949	-0.304148
37	0x3ebab524	0.36466324
38	0x3dc81c33	0.097710036
39	0x3e3629d0	0.17789388
40	0xbdea7a90	-0.11449158
41	0x3eb86ac6	0.36018962
42	0xbed4476e	-0.41460747
43	0xbe1bfab4	-0.15232354
44	0x3d614630	0.054998577
45	0xbe052b89	-0.13004889
46	0x3dd42d58	0.10360211
47	0x3ecdf0cc	0.40222776
48	0x3d354b70	0.044261396
49	0xbebc4002	-0.36767584
50	0x3e3a8d7c	0.18218035
51	0x3b4b9189	0.0031062088
52	0xbe7c6bb9	-0.24650468
53	0xbe9475b1	-0.2899604
54	0x3ebd57c3	0.3698102
55	0xbea93534	-0.33048403
56	0xbdc2da02	-0.09514238
57	0xbbc59b80	-0.0060305
58	0x3eaee672	0.3416019
59	0x3f00b629	0.50277954
60	0xbec629e6	-0.3870384
61	0x3d7c6ed0	0.061629117
62	0xbe4827ba	-0.19546404
63	0xbeee3f10	-0.46532488

critic.2.weight f4 [64, 64]
0	0xbba42ae7	-0.005009997
1	0x3d8894e3	0.06669023
2	0x3ca692b4	0.020333625
3	0xbdea8bc4	-0.114524394
4	0xbbe6e53e	-0.0070463708
5	0xbd928547	-0.07154327
6	0x3cfe058e	0.031008508
7	0xbdf52e06	-0.11971669
8	0xbd7eb3dc	-0.062183246
9	0xbc49d37a	-0.012318486
10	0xbd45d97d	-0.048303116
11	0x3c6dccb7	0.01451414
12	0xbc088021	-0.00833133
13	0xbda7f154	-0.082003266
14	0xbd14827b	-0.03625725
15	0x3e1247b8	0.14285171
16	0x3e0dae6d	0.1383607
17	0x3db336f8	0.08750719
18	0xbd34e159	-0.04416022
19	0xbe138b2b	-0.14408557
20	0xbda4e06c	-0.080506176
21	0x3c639c1e	0.013892202
22	0xbd93c52d	-0.07215343
23	0xbd68fb03	-0.05688001
24	0xbddc903b	-0.10769697
25	0xbe18df4d	-0.14928932
26	0x3d3f253c	0.04666637
27	0x3e0f33ea	0.13984647
28	0xbc997193	-0.018730914
29	0xbdf01433	-0.11722603
30	0xba039f13	-0.00050209573
31	0xbddc67f4	-0.10762015
32	0x3c1fd779	0.0097559625
33	0xbe06ebc5	-0.13175876
34	0x3d1bd31f	0.038043138
35	0xbdc0845a	-0.09400244
36	0x3d9322cb	0.071843706
37	0x3db7b1bb	0.08969446
38	0x3c1c1072	0.009525405
39	0x3d4c751b	0.049916368
40	0xbdc11db6	-0.09429495
41	0xbe092bae	-0.13395569
42	0xbdaac382	-0.083380714
43	0xbc004205	-0.00782824
44	0xbc9d199b	-0.019177249
45	0x3d94d2dc	0.07266781
46	0xbd1bd5e1	-0.038045768
47	0x3cca5823	0.02470023
48	0xbd005423	-0.03133024
49	0x3d543f47	0.05181816
50	0xbdf5038e	-0.11963569
51	0x3dda9c77	0.106743746
52	0x3a86df9c	0.001029003
53	0x3d866a94	0.06563297
54	0xbdcd686f	-0.10029685
55	0xbcc7cc6b	-0.024389466
56	0xbcbfcd70	-0.02341339
57	0x3e16bdca	0.14720836
58	0xbca1ddeb	-0.019759139
59	0xbd3cb14c	-0.04606752
60	0xbdc8cb4c	-0.09804401
61	0x3bdc0840	0.0067148507
62	0x3d1be2da	0.03805814
63	0xbb16ba0b	-0.0022999074
64	0xbd2dc13d	-0.042420615
65	0xbd2acc61	-0.041698817
66	0x3dd6ee58	0.10494679
67	0xbd02d971	-0.03194565
68	0x3e2d081e	0.16897628
69	0xbd155801	-0.03646088
70	0x3d8f8f25	0.070097245
71	0xbdfce046	-0.12347464
72	0x3e1a43af	0.15064882
73	0xbcbfb623	-0.02340228
74	0xbe101d4c	-0.14073676
75	0x3e1de462	0.15419152
76	0xbd4502f9	-0.048098538
77	0xbdefcf9a	-0.11709519
78	0x3cb69903	0.022289759
79	0x3e3f2212	0.1866534
80	0x3d424365	0.047427554
81	0xbbcb2314	-0.00619925
82	0xbdbb2e42	-0.09139682
83	0xbd7ea318	-0.062167257
84	0xbe31c834	-0.17361528
85	0xbc543635	-0.012952377
86	0xbc9c1e7f	-0.01905751
87	0xbaeafea4	-0.0017928672
88	0xbdb6dabd	-0.0892844
89	0xbe5b371d	-0.21407743
90	0x3c1fcb40	0.009753048
91	0x3de3ae4c	0.11117229
92	0x3ca84c36	0.020544153
93	0x3cff7c09	0.031187074
94	0x3e2824ca	0.16420284
95	0x3b9452e9	0.004526485
96	0x3d891ae8	0.06694585
97	0xbb1de7ed	-0.0024094537
98	0x3d72908a	0.059219874
99	0x3dd045e4	0.101695806
100	0x3db7d02f	0.08975255
101	0x3e026723	0.12734656
102	0xbd63b82f	-0.055595573
103	0xbe357837	-0.1772164
104	0x3ddbab74	0.107260615
105	0xbd21be34	-0.039488032
106	0x3d8dbd1f	0.069208376
107	0xbdc98f98	-0.098418415
108	0x3daa1e38	0.08306545
109	0x3db1fff1	0.08691395
110	0xbd4fba67	-0.050714877
111	0xbcfcff5b	-0.030883482
112	0xbd4989ee	-0.049203806
113	0xbe1a2e07	-0.1505662
114	0xbd07d6e2	-0.033163913
115	0x3ccf6e7f	0.025321243
116	0xbe4d8cd1	-0.20073248
117	0xbd8c78c0	-0.06858969
118	0x3e30d843	0.17269997
119	0x3d0df3a5	0.034656186
120	0x3d49f6dc	0.04930769
121	0x3c12e074	0.008964647
122	0xbdf65875	-0.120285906
123	0xbc751a4e	-0.014959885
124	0xbc002003	-0.007820132
125	0xbddb7ce8	-0.10717183
126	0x3cc2493a	0.023716558
127	0xbd50d26d	-0.050981928
128	0xbd3287e5	-0.04358663
129	0x3c210913	0.009828824
130	0xbd51b746	-0.051200174
131	0xbdaec037	-0.08532756
132	0xbc838b5b	-0.01605766
133	0xbd6e83bb	-0.058231097
134	0x3d9df4e9	0.077127285
135	0xbdc8e8d8	-0.098100364
136	0x3da891b5	0.082309164
137	0x3c736ebf	0.014857947
138	0xbe08114e	-0.13287851
139	0x3d66c84e	0.05634337
140	0xbdc44518	-0.09583491
141	0xbc609b58	-0.013708912
142	0x3d0e53dc	0.034747943
143	0x3e11d808	0.14242566
144	0xbcc7c801	-0.024387361
145	0x3db75769	0.08952219
146	0xbdead88b	-0.114670835
147	0x3d845fdb	0.064635955
148	0xbd81e2f0	-0.06342113
149	0xbd89750c	-0.06711778
150	0x3d9154d9	0.070962615
151	0xbd54d6cd	-0.051962662
152	0xbc7e3e10	-0.015517727
153	0xbd3247f9	-0.04352567
154	0xbdfd19b1	-0.12358416
155	0x3e0db8e6	0.13840064
156	0x3d0c1bb0	0.034206092
157	0xbd759ecb	-0.05996589
158	0x3de45c49	0.111504145
159	0xbe15c0ac	-0.1462428
160	0x3e0445d8	0.12917268
161	0xbe14395e	-0.14475009
162	0x3d061bc6	0.03274133
163	0xbd9d4f43	-0.076811336
164	0xbc8bce4b	-0.017066142
165	0xbc19156b	-0.009343485
166	0x3d4ac6bb	0.04950593
167	0xbe1719e6	-0.14755973
168	0xbc3dffdf	-0.011596649
169	0x3d7c4a37	0.061594214
170	0xbb1d7e63	-0.0024031631
171	0xbde5d956	-0.11223094
172	0x3e09f8c6	0.13473806
173	0x3cd33ff1	0.025787326
174	0x3d931bfb	0.07183071
175	0x3a8a8bc6	0.001057022
176	0xbd816d1c	-0.06319639
177	0xbd0143c8	-0.03155878
178	0x3c9f0daf	0.019415705
179	0x3ded0583	0.11573317
180	0xbe3791b2	-0.17926672
181	0x3b8a6418	0.004223358
182	0x3df003d1	0.11719478
183	0xbdfab067	-0.12240677
184	0xbdc1aff0	-0.094573855
185	0x3e0705b8	0.13185775
186	0xbcffdf3e	-0.03123438
187	0xbdc7f54c	-0.097635835
188	0xbb90d78e	-0.0044202274
189	0xbb705795	-0.0036673297
190	0xbd92f6af	-0.071759574
191	0xbd231428	-0.039814144
192	0x3e0283f4	0.12745649
193	0xbd947347	-0.0724855
194	0x3d652982	0.055947788
195	0x3d5b61e1	0.05356014
196	0xbdc8e33f	-0.09808969
197	0xbd92744c	-0.07151088
198	0xbb78e06d	-0.0037975565
199	0x3dd052f5	0.10172073
200	0xbda480cd	-0.08032379
201	0x3d554f5e	0.052077644
202	0xbd53c10b	-0.051697772
203	0x3cc1ab1c	0.023641162
204	0x3e088f62	0.13335946
205	0x3bae0b8e	0.005311436
206	0x3d4616aa	0.048361458
207	0xbdd4eb7e	-0.10396479
208	0x3dacbd48	0.0843454
209	0xbd5c541a	-0.053791143
210	0xbe09f700	-0.1347313
211	0x3dcfee83	0.101529144
212	0xb9b94e51	-0.000353443
213	0xbc85f904	-0.016354091
214	0x3db2ed3c	0.08736655
215	0xbc70a246	-0.0146871265
216	0x3b10a3b8	0.002207024
217	0xbdc9f145	-0.09860472
218	0x3dd71a7f	0.105031006
219	0x3ca2e6c3	0.019885426
220	0xbdd95d14	-0.10613456
221	0x3d67e01d	0.056610215
222	0x3b836754	0.0040101204
223	0xbd99d6a5	-0.07511643
224	0x3dc58695	0.0964481
225	0x3d467a65	0.04845657
226	0xbdb2ea15	-0.08736054
227	0x3e012330	0.12611079
228	0xbd041732	-0.032248683
229	0x3d1b7a6c	0.037958547
230	0xbd0004cb	-0.03125457
231	0x3da438ac	0.08018622
232	0x3e06e9da	0.13175145
233	0xbda06df4	-0.07833472
234	0xbd358524	-0.044316426
235	0xbd7889dd	-0.06067835
236	0xbdbabebf	-0.09118413
237	0x3d80634f	0.062689416
238	0x3cbdf922	0.023190085
239	0xbd16ac1a	-0.036785223
240	0x3d2bc30f	0.04193407
241	0xbc20ee97	-0.009822509
242	0xbc6d24df	-0.014474123
243	0xbd9035a8	-0.07041484
244	0xbe2f51e5	-0.17121084
245	0xbc5ab3a9	-0.013348498
246	0xbc07c10b	-0.008285771
247	0x3d52a902	0.05143071
248	0xbc5ca10a	-0.013466129
249	0x3e0327b6	0.12808117
250	0x3d857e81	0.06518269
251	0x3dcffd8a	0.101557806
252	0xbcd488d8	-0.025944158
253	0xbd165548	-0.036702424
254	0xbce8b649	-0.028407233
255	0xbd10a666	-0.03531494

critic.2.bias f4 [64]
0	0x3ce58004	0.028015144
1	0x3e020c3a	0.12699977
2	0x3d1f4ca6	0.038891457
3	0x3e0f48e6	0.13992652
4	0xbe0b7926	-0.13620433
5	0xbd54824b	-0.05188207
6	0x3d9f32da	0.07773371
7	0x3dbc2389	0.09186465
8	0x3d856c53	0.06514802
9	0x3ca50d6d	0.020148003
10	0x3df6ec15	0.12056748
11	0xbdba12b1	-0.09085596
12	0x3c9dcf38	0.019263849
13	0x3cbf82bd	0.02337777
14	0xbbc2f442	-0.005949528
15	0xbddaa809	-0.106765814
16	0x3d93414b	0.07190188
17	0x3cd06ba8	0.02544196
18	0x3df4958b	0.119425856
19	0x3c1d0209	0.009583005
20	0x3d4f42f8	0.050600976
21	0x3daa54cc	0.08316955
22	0x3e10ecd5	0.14152844
23	0xbca19623	-0.019724911
24	0xbd264026	-0.04058852
25	0x3d34f67c	0.04418038
26	0xbbd053b2	-0.0063576335
27	0xbe24196b	-0.16025321
28	0xbd56560a	-0.052328147
29	0x3cdfd926	0.027325224
30	0x3dab2f1e	0.08358596
31	0x3c579102	0.013157131
32	0x3c2df6a2	0.010617884
33	0x3dd88c1c	0.10573599
34	0xbb870d22	-0.0041214386
35	0x3e0c25ae	0.13686249
36	0x3d8f57f9	0.06999201
37	0xbda84d10	-0.082178235
38	0x3d6843f2	0.056705423
39	0x3b89f19b	0.00420971
40	0x3d3ffc23	0.046871316
41	0xbc1fff61	-0.009765477
42	0x3dc24afd	0.09486959
43	0xbcefe0fd	-0.029282087
44	0xbe34ea47	-0.17667495
45	0x3e074e34	0.13213426
46	0x3df004c0	0.11719656
47	0x3e11a156	0.14221701
48	0x3d9a1cb2	0.075250044
49	0xbc544795	-0.01295652
50	0xbe0b06c6	-0.13576803
51	0x3d859817	0.065231495
52	0x3db28b4b	0.08717974
53	0xbc0e1b99	-0.008673572
54	0xbc6304f3	-0.01385616
55	0xbd7fb214	-0.062425688
56	0xbdd097d4	-0.10185209
57	0x3d5f7469	0.054554377
58	0x3d977b87	0.07396608
59	0x3d91e0b5	0.071229376
60	0x3de9a836	0.11409037
61	0x3cf14f02	0.02945662
62	0xbe0a20e4	-0.1348911
63	0x3c33804c	0.010955881

critic.4.weight f4 [1, 64]
0	0xbb0214cd	-0.0019848824
1	0x3be651ea	0.007028808
2	0x3c4424d1	0.011971668
3	0xbcab04d7	-0.020876331
4	0xbd3cf7bd	-0.0461347
5	0x3cce0114	0.025146998
6	0x3d9231d1	0.07138408
7	0x3d278bd3	0.04090483
8	0xbd0f7e6a	-0.035032667
9	0x3e4566e9	0.19277538
10	0xbcebc56c	-0.028780662
11	0xbd17179a	-0.036887743
12	0x3d2b1a01	0.041772846
13	0xbac296cb	-0.0014845965
14	0xbd24f136	-0.0402691
15	0xbd168f12	-0.036757536
16	0x3c81026a	0.015748221
17	0x3cda9ee9	0.026687102
18	0x3cc22530	0.023699373
19	0xbd379f45	-0.044829626
20	0x3cfcb9a5	0.030850241
21	0xbc71fa24	-0.014769111
22	0xba7e887c	-0.0009709669
23	0x3d0f688c	0.035011813
24	0x3c743ba6	0.014906799
25	0x3bf5631b	0.007488621
26	0x3cab099c	0.020878606
27	0xbc43bc23	-0.011946711
28	0x3ea18414	0.3154608
29	0x3d02cd90	0.03193432
30	0xbd6a05e7	-0.057134535
31	0x3c936afb	0.017995348
32	0x3b6c5e5b	0.0036066982
33	0xbdb0d8d6	-0.08635108
34	0x3d5352df	0.051592704
35	0xbcacc91e	-0.021091994
36	0xbcbf57e2	-0.023357335
37	0xbdc02169	-0.093813725
38	0x3c1175e7	0.008878208
39	0x3d642674	0.055700734
40	0xbe86b553	-0.26310214
41	0xbde94123	-0.11389377
42	0x3c07e5b2	0.00829451
43	0xbce407f6	-0.027835827
44	0x3b77d16f	0.003781404
45	0x3d0b6060	0.034027457
46	0xbdedad1d	-0.11605284
47	0x3bd00265	0.0063479417
48	0x3d2207c0	0.039558172
49	0xbcf29afc	-0.029614918
50	0x3c577729	0.013150969
51	0x38fd76be	0.000120860976
52	0xbc8fc41e	-0.01754957
53	0x3d044dfc	0.032300934
54	0x3d4bc4f5	0.04974838
55	0x3d931ba6	0.07183008
56	0xbc110c24	-0.008852992
57	0xbc32c238	-0.010910563
58	0xbe4338bc	-0.19064611
59	0xbd021e37	-0.031767096
60	0x3cf44667	0.029818727
61	0x3d3fd64b	0.046835225
62	0x3dcf6d94	0.10128322
63	0xbd4fe6d0	-0.05075723
